fastai_trained_model_78Acc.pkl (torch_old, 246266 bytes, 30 tensors)

weight f4 [31, 11]
00000000: 9d2a 103c 08fb 8fbb 4412 603c 4ec0 303c
00000010: fb00 ac3a 1760 b23b c5c4 343c 1e3b 653b
00000020: 841c 853b cd20 0b3c 9c6d e6ba c8c4 15bc
00000030: 65dd 283c 19af 15bb 68d0 413c 1589 973c
00000040: 715b d8bb 59f8 1abc c74a 66bb bbf8 05bb
00000050: 25cb 9ebc 2251 b13b 53cb 3c3c 7d2e 483b
00000060: 6b09 e53b 94d2 0e3c 9afc afbb 3b3a 1a3c
00000070: b191 f5bb 4a6e a4bc cefd 0fbc d7c6 9c39
00000080: 01aa 263c 6f4c 47bb a77d ce3b d4ff 7cb9
00000090: 8d73 bc3a 0a42 2f3c 7c2b 1abc 8633 a9ba
000000a0: 9561 543c a263 58bc 0fa2 c83b cd7f 8139
000000b0: dcb1 a73a d56c 44ba e4f7 e0b9 d6e6 b63b
000000c0: a27f 9e3c 6273 1e3c 8ba8 0dbc 9f21 e1bb
000000d0: d8d7 563c 0fa0 b93b b02a 0abc 5bdc 543c
000000e0: b568 a43a d560 7cbb c5ce b43c 3a2d d8bb
000000f0: 4cab 07bc fd35 bc3a 0b56 793c 33a8 db3a
00000100: 7f55 643c 45cc 853c 1244 a5bb 4970 e038
00000110: d69b 743c f846 e9bb d659 a3ba eb5d 283c
00000120: 2214 5fbc d3e3 083c d383 4f3c 1944 0c3c
00000130: c42b 1cb8 96ac d73a 8995 fbbb d3af 24bb
00000140: e964 453c 1f8c 103c c5e0 8fbb 7c0a 923b
00000150: c147 363b 0608 b13b 3043 9ebb 3c30 3fbc
00000160: 6a56 fb3b b7c7 5c3b 3698 b3bc 870a adba
00000170: dd35 27bc 9899 2b3c f645 253b eea0 35bc
00000180: 66dd bbbc b241 bdbb 1994 d4bb 97db 653b
00000190: 1973 72ba de65 1d38 e900 c8ba 3f3c babc
000001a0: 889b 1ebc c065 253b 43e2 afbb 1003 77bc
000001b0: 6b3d d83b e0a3 2e3c fc85 1dbb b191 00bc
000001c0: ac20 a23b 3f56 c73b 8c2a 2eba 104f b73c
000001d0: cb50 9b3c d16a b5bb 2a16 303c 594c 52bc
000001e0: dd08 093c d934 87bc 81ce 6aba ec34 093c
000001f0: fab0 e33b 8426 c9bb ce0c 3bbc 93df 86bc
00000200: e0ff 3a3c b3ba 4bbb 45d2 003b 8e25 023c
00000210: 49ab 153b e026 95bc b02a 523b 6d80 b63b
00000220: ada2 333b 1f67 06bc c359 5cbc 942f d73b
00000230: 3eac 08bc 0f50 573c 599b 813b 2392 b3bc
00000240: 6e28 fe3b 0de8 8abb 50f3 1a3c facc 1c3c
00000250: 2309 beba efdf f23b eec1 8e3b d24c 5d3b
00000260: dac4 b139 b237 11bb 6c97 163c e246 e6bb
00000270: c8ad e0bb 784f 12bc 7276 c13b 9064 5a3c
00000280: 7538 65bb a703 1dbb 67af 7ab9 f3c9 c13a
00000290: d67d 9dbc 619f 493c 9e03 ff3b 91a7 143b
000002a0: 63db 1e3c fcb6 3fba 6891 473c 90ac 853b
000002b0: 0355 683c 4045 69bc 1b7a 473b 9112 33bb
000002c0: 7906 9bbb 7741 a53b 707f b73b d24d 1b3b
000002d0: 8f9f 0eb9 d1eb bebb 124a 133c db64 47bb
000002e0: 1dd3 10b9 066d 5438 aa4a 60bc b6c4 d1bb
000002f0: 6cd1 48bc bf09 4bb9 9021 45bc f0de eabb
00000300: 37fb 7c3c a10f a5b9 7b52 68bc 4266 b8ba
00000310: 81a1 10bc 6b85 22ba 0346 5bbc d415 90bc
00000320: 00a6 0a3c 50c9 24bb 4425 82bc 385a 4c3b
00000330: f52b 5abc 638f 733b d225 4d3c 6255 70bb
00000340: f9bb 50bc 2d8d bcbb cfa0 43bc 88f8 443c
00000350: b273 fdba 2f05 15bc 2a84 88bc 6fed 1bbc
00000360: dddb 1e3b 160b 9c3c e7bc c53b ac90 233b
00000370: cef2 a33c 4f02 423c 1b8e 45bc 9d0c 3ebc
00000380: 322a 9b3c 74c6 c53b 6659 ee3b 3532 08bc
00000390: 42dc 7c3b bec5 293b 8451 1bbb fb47 88bb
000003a0: 067a 4d3b bba4 edbb 3dc2 0b3c bc64 06bc
000003b0: b2d7 a13a 5bd8 c93b e598 053b a0ea d53b
000003c0: 1e01 9fbb 3f28 36bc ed73 173c f7e1 283c
000003d0: 7426 c5bb d0c7 473c 6e43 85bb 97b1 0cbc
000003e0: 0c88 0639 4e8f 24bc 7159 84bc 5e75 a8ba
000003f0: 7df0 5f3b f084 273c 2b32 27bb dc9f eb3b
0.008799222 -0.004393939 0.01367623 0.0107880365 0.0013122851 0.0054435837 0.011033242 0.0034977864
0.004062237 0.008491707 -0.0017580274 -0.009141155 0.010306691 -0.0022839962 0.011829473 0.018497983
-0.0066026975 -0.009458625 -0.0035139786 -0.0020442444 -0.019383976 0.005411283 0.011523086 0.0030545287
0.006989648 0.008717198 -0.0053706886 0.009413297 -0.0074941744 -0.020072121 -0.008788539 0.00029902786
0.010172368 -0.0030410548 0.0063016 -0.00024127896 0.0014377699 0.010696897 -0.009409782 -0.0012909032
0.0129627185 -0.013207348 0.0061228345 0.00024700016 0.0012794095 -0.0007493024 -0.00042909302 0.005581717
0.01934797 0.009671064 -0.008646141 -0.006870463 0.013112985 0.0056648324 -0.008433029 0.01299199
0.0012543412 -0.0038509865 0.022071252 -0.0065971883 -0.008280586 0.0014359351 0.015218268 0.0016758501
0.0139363995 0.016332755 -0.005043515 0.00010702067 0.014929732 -0.007119056 -0.0012462686 0.010276298
-0.01361564 0.008355099 0.012665707 0.008561158 -3.723406e-05 0.0016454633 -0.007677738 -0.0025129213
0.012047985 0.00882247 -0.0043908083 0.0044568162 0.0027813765 0.005402568 -0.0048297867 -0.011669215
0.0076702135 0.0033688375 -0.021923166 -0.001320199 -0.010205713 0.010473631 0.0025218702 -0.011085732
-0.02293272 -0.0057756538 -0.006487381 0.0035073513 -0.0009248718 3.7526588e-05 -0.001525906 -0.022733806
-0.009680636 0.002523765 -0.0053675487 -0.015076414 0.0065991185 0.010659188 -0.002403616 -0.007847236
0.0049477424 0.0060832794 -0.0006643913 0.022376567 0.018959424 -0.005536415 0.010747472 -0.0128355855
0.00836393 -0.016504692 -0.0008957163 0.008374434 0.0069485875 -0.0061386246 -0.011416627 -0.01646403
0.011413544 -0.0031086623 0.001965658 0.007943524 0.002283769 -0.018207014 0.00320689 0.0055695088
0.0027410195 -0.008203297 -0.013449135 0.006566951 -0.008341847 0.013141646 0.0039552865 -0.02192027
0.0077562844 -0.0042390884 0.009457424 0.009570355 -0.0014498573 0.007411949 0.0043566143 0.0033767712
0.00033906737 -0.002215844 0.009191375 -0.007027493 -0.006856654 -0.00893008 0.0059040124 0.01332964
-0.0034976278 -0.0023958476 -0.000239072 0.0014784917 -0.019225042 0.012306065 0.0077824136 0.0022682885
0.009695861 -0.00073133386 0.012180664 0.004079409 0.014180425 -0.014237702 0.003043777 -0.00273243
-0.004730996 0.0050432044 0.0055999085 0.0023697508 -0.00013601616 -0.0058264514 0.008989828 -0.0030425105
-0.00013811556 5.0646275e-05 -0.013689676 -0.0064016236 -0.012256961 -0.0001936322 -0.012031928 -0.0071676895
0.015440754 -0.00031482897 -0.014179821 -0.0014068561 -0.008827568 -0.00061996904 -0.013383391 -0.017588533
0.008462429 -0.0025144406 -0.01588691 0.0031181704 -0.013316144 0.0037164323 0.012521224 -0.0036671986
-0.012740129 -0.005754134 -0.011940195 0.012022145 -0.0019336848 -0.009095474 -0.016664583 -0.009517058
0.0024239935 0.019048255 0.006034482 0.0024958057 0.02001324 0.011841371 -0.012057806 -0.011599687
0.018941019 0.0060356203 0.0072738407 -0.008312752 0.0038583432 0.0025905217 -0.002369971 -0.0041589714
0.003135325 -0.0072523034 0.008530197 -0.008202728 0.0012347607 0.006159825 0.0020385322 0.0065282136
-0.004852428 -0.011117994 0.009243947 0.0103077805 -0.006016547 0.012193635 -0.004066876 -0.008587263
0.00012829917 -0.010043932 -0.01615593 -0.0012852361 0.0034170442 0.010224566 -0.002551208 0.0071906876

weight f4 [31, 11]
00000000: 6218 a839 0454 5cbb a7ca 0f3c 2d47 c03a
00000010: 31d6 7c3c 07c5 f73a c657 ccbb 760c 05bb
00000020: 7f81 92bb 24c0 f6bb e144 7f3c d2bf 43bc
00000030: 8940 333b 9677 86bb 0147 75bb 9f10 8a3c
00000040: 6709 783a 43d3 99bc 7fa2 85b8 0e00 86bb
00000050: 1557 08bc e9a5 a1bb 8616 a73c d1f9 1d3b
00000060: 9adf 2dbc 96a4 663c b32c 91bb 885d e4bb
00000070: 9dcb aebc 0127 c03b 836e 083c bba2 ce3b
00000080: 4075 f5bb ee4b 363b 8e95 7cbb 34ad 4c3c
00000090: 8aa7 3b3b e480 0fbb 9ed1 1dbc 8f63 783b
000000a0: 77f3 4fbc 2ed6 72bc bfec 63bc ea9d 6bbb
000000b0: 68a5 fd39 fdcb ba3a e0a9 823c 9fa9 0fbb
000000c0: 20a9 83bb 2959 11bc e9a9 2dbc d0c4 1fba
000000d0: 6cd5 1ebb dbe9 67bc fc48 473b f623 2bbb
000000e0: 7a91 253c b143 543c 3bb4 1cbc e742 2bbc
000000f0: f4c4 4c3b 5bbd 88bb b8bc 383c a346 0bbc
00000100: 47eb be3b 3cbd b3bb 396d e83b 79a9 4e3c
00000110: 1859 c1bb 9bae 84bb 8afc 473c a1ca 403b
00000120: 3b21 123c cd3f 453c 8bb3 bebb e676 13ba
00000130: 60f0 dc3b 3404 913b f9ce 99ba 5b81 e3bb
00000140: b29b dabb c617 39bb f27e 233c 0a08 a4bb
00000150: ea10 9c3b a378 b43a d845 33bc 367a 7e3c
00000160: 945e 653b ef06 8c3c b311 38bc 8d92 15bc
00000170: 45d7 ef3b 85fc 613c 3e0c c8ba 5ed2 9f3b
00000180: 4b4f 763a 45ce 06bc 7322 ac3b 48ed 3d3c
00000190: 147c 94bb b200 0dbb 2827 8abc 2790 35bc
000001a0: 9352 b03a 07a2 a8bc e997 f0b7 2c08 3ebc
000001b0: 1a9a 43ba c9da a4bb 4fa6 98bb 1f3c 97bb
000001c0: 5d5e a93a 3b4b 8b3c ecca c3bb bac2 41bb
000001d0: d701 22bc b8fd 8b3c 5c96 a73b 1eb9 183b
000001e0: d325 a2bc 7a11 1fba e14e de3a 6d82 36bc
000001f0: c148 683c e400 2d3c 4ff4 8abb 584c 633b
00000200: 6182 ac3b 10db a73a 7c49 ee3b d7af 6ebb
00000210: 782e dd3b 687d 883a 1ba0 f23b 8552 483c
00000220: 7461 1bba ac19 61bc fbe6 86ba bc42 0f3c
00000230: a9dd 65bc 83c1 1d3b e1c3 46bc e045 733a
00000240: c67d 10bc 64e3 0b3c 10f1 30bc a680 053b
00000250: 728a 8ebb 32fd 83bb c896 b23b b995 933c
00000260: dad2 fb3b 94fe 363c 3f10 96bc 8813 063c
00000270: 4c62 803c e6c9 d43b e6cf 5539 811a 53bc
00000280: f177 5d3b 27b5 d7bb d2d2 593a 9f43 9abc
00000290: 68c8 cf3b 49e2 fa3b d83c 133c 8cc7 77bc
000002a0: 4ba1 9d3c 2241 93bc fb04 303c 2ed2 0d3c
000002b0: 6195 733c b728 86bc 570a ee3b 2fb3 15bc
000002c0: 60cf e03b 17c1 d83b 6169 733c 827b 3fbc
000002d0: 85f9 43bb 6d35 18b8 2409 313c e0b5 2cbc
000002e0: 8f52 853b 57c4 61bb b8a9 abbb fff0 853b
000002f0: 2db0 a23c 5381 06bb 5d07 b4ba 1bd2 d2bb
00000300: d4f6 93bc 1730 bd3a f869 953c 1d10 4a3b
00000310: 1383 893b 7871 313c c2d0 f03b 6a8c dab9
00000320: bfff bebb 9661 833a 4e15 e53a 6843 76bc
00000330: 26a5 073c 7d86 2b3b 2e50 a13b fe51 b93c
00000340: 9ae7 9cba d1f3 353b 6e0d fa3b fa96 3c3b
00000350: 5547 253c 7c22 acba c345 27bc 6065 d0bc
00000360: 79b2 04bc a483 5fbc 0a57 5bbc 4d87 453b
00000370: 4729 573b a13c dd3a f42f aa39 aed2 233c
00000380: efdb 8b3b 5e37 a5bb 4cc6 233b 1977 4c3b
00000390: 98ff 7a3c 8739 0b3c 04f2 b03a 1d7b 803b
000003a0: 9f35 bcbc f81a 9a3a d4c9 f1ba ffaa 3dba
000003b0: 7d71 41bb bd9b 06bb 59a7 cf3b b37a 72ba
000003c0: 0373 91bb 1e92 8dbc 3e0d 493b 9dba 51bc
000003d0: eb83 95bc f697 ea3a f753 14bc d5e6 393c
000003e0: 5396 c4bb 5d8e 793c fe0f 2d3b ed98 133c
000003f0: 50cf 51bb 8815 873b 4a07 03bc 0abe 10bc
0.00032061624 -0.0033619413 0.008776343 0.001466965 0.015431927 0.0018903323 -0.0062360493 -0.0020301617
-0.0044710035 -0.007530229 0.015580387 -0.011947589 0.0027351698 -0.004103611 -0.0037426355 0.016853629
0.000946185 -0.018777495 -6.3722015e-05 -0.004089362 -0.008321543 -0.004933108 0.020396482 0.00241052
-0.010612393 0.014077326 -0.0044303774 -0.0069691576 -0.021337325 0.0058640246 0.008327129 0.00630602
-0.007490784 0.0027816254 -0.003854129 0.012492467 0.0028633797 -0.0021896893 -0.009632496 0.0037901138
-0.012692324 -0.014821572 -0.013911425 -0.0035952278 0.00048379158 0.0014251467 0.015950143 -0.002192117
-0.004017964 -0.008871355 -0.010599592 -0.0006094696 -0.0024236096 -0.014154877 0.0030408492 -0.0026113964
0.010105485 0.012955592 -0.009564455 -0.0104529625 0.0031245323 -0.0041729636 0.011275463 -0.008500728
0.005826387 -0.005485205 0.0070930985 0.012613648 -0.0059005134 -0.004049135 0.012206206 0.0029417651
0.008919056 0.012039137 -0.005819743 -0.0005625322 0.006742522 0.00442555 -0.0011734656 -0.0069429106
-0.0066713924 -0.002824293 0.009978997 -0.005005841 0.0047627585 0.0013768863 -0.010941945 0.015532067
0.0034999 0.01709315 -0.011234689 -0.009129179 0.0073193633 0.0137931155 -0.0015262438 0.0048773726
0.0009395971 -0.008227889 0.00525313 0.011592217 -0.004531393 -0.0021515307 -0.016864374 -0.011081732
0.0013452343 -0.020585073 -2.8680968e-05 -0.011598628 -0.00074616226 -0.005030964 -0.0046584974 -0.0046153213
0.0012921799 0.017003646 -0.005975118 -0.002956553 -0.009888134 0.017088756 0.00511436 0.0023303698
-0.019793427 -0.0006067973 0.0016960764 -0.011139494 0.014177502 0.010559294 -0.0042405496 0.0034682956
0.005264566 0.0012806375 0.0072719436 -0.0036420727 0.0067499243 0.001041335 0.00740434 0.012226705
-0.00059273024 -0.013739031 -0.0010292226 0.008743938 -0.014029899 0.002407164 -0.012131662 0.00092801265
-0.008819049 0.008538101 -0.010799661 0.002037087 -0.00435 -0.004027986 0.0054501034 0.01801573
0.0076850476 0.011169095 -0.018318294 0.008183368 0.015671872 0.0064937947 0.00020390711 -0.012884737
0.0033793414 -0.0065828743 0.0008309308 -0.018831072 0.006341029 0.00765637 0.008986674 -0.015123259
0.01924195 -0.017975394 0.010743375 0.008656068 0.014867158 -0.016376836 0.007264416 -0.009136959
0.0068606585 0.006614815 0.014856667 -0.011687161 -0.0029903364 -3.628938e-05 0.010805402 -0.010541409
0.0040686796 -0.0034449303 -0.005238738 0.004087567 0.019859398 -0.002052386 -0.0013735105 -0.006433738
-0.018062033 0.0014433888 0.018239006 0.0030832358 0.0041965335 0.010830276 0.0073491046 -0.00041684817
-0.005828827 0.001002359 0.0017477663 -0.015030719 0.008279121 0.002617269 0.0049228882 0.022622105
-0.0011970878 0.0027763734 0.0076309955 0.0028776512 0.010087808 -0.0013132836 -0.010209504 -0.025438964
-0.008099192 -0.013642225 -0.013387451 0.003014046 0.0032831 0.0016879031 0.00032460655 0.00999896
0.0042681615 -0.0050420007 0.002499002 0.0031198917 0.015319727 0.008497602 0.0013499861 0.0039209262
-0.022974787 0.0011757305 -0.001844699 -0.0007235258 -0.0029517107 -0.0020539605 0.006337088 -0.0009249851
-0.0044387593 -0.017281588 0.003067806 -0.01280084 -0.01825138 0.0017898071 -0.009053222 0.011346539
-0.0059993654 0.015231696 0.0026407237 0.009008628 -0.0032014437 0.00412244 -0.007997343 -0.008834371

weight f4 [65, 17]
00000000: a359 17bc fb6c c43b 6b1a 9a3b 5b65 2ebc
00000010: ad22 563c e6c8 923b 4764 b43b b631 1dbb
00000020: ece8 b3bb d3c1 1d3b 532e 0ebc e49b aa3b
00000030: 7644 14bc 5804 34ba af23 9dbb afa6 a93b
00000040: 18c3 f7bb 8dc4 86ba fce8 263c 9055 38bc
00000050: 96a3 a2bb a5e2 dfbb 04ce 2d3c 7d5e 473b
00000060: 5630 84bc 9464 04bb 3c31 f0ba 0ffd 483b
00000070: 45de 043c b1c1 83bc e9d1 063b e020 18bc
00000080: 6a2c 673a a56b 03bb 4832 6ebb 0a62 9d3b
00000090: 3d2a d73b 202b 02bc d0cb bebc fd05 353c
000000a0: e509 853c 7e42 bfbb d3c8 c6ba 4dda 423c
000000b0: 28eb 50bb 7d3b f2bb 8a44 2bbb 423b d03b
000000c0: b65e 3dbb 1247 7bbc 446d 913a 8605 d2bb
000000d0: 349c 233c d4c8 bf3a 936e 15bc 7465 1fbc
000000e0: 525c 70bb e0da 353b cd10 fa39 de7a 063c
000000f0: 5c92 063c cc8e 6b3a 3cd5 e23b d3cb a63c
00000100: bbc9 acba 85ee c1bb e71f 19bc 76e6 4f3c
00000110: fa0d 45bb e35b 473b 3380 59bc e38a 0abc
00000120: 0441 b5bb 1f19 d4bb aaaf b43b 5bb9 fcbb
00000130: 5a0a e8ba 37de 42bc 6f7a e33b 0b34 863b
00000140: 0121 15bc 0463 f23b aeba 82bc d892 a1bb
00000150: 09e1 4f3c 9242 4cbc b305 6b3c b728 523c
00000160: eb1e 983c 9576 563b d474 3e3c 3603 e43b
00000170: ce9b 97bc 63af 533b e94e 8a3c 68f7 49bc
00000180: f9e0 5d3c 976a b1bb 6ed0 2cbc 0555 28bc
00000190: 873e 04bb 1096 fa39 c155 00bc f51b 7e3c
000001a0: 8876 8d3c 41ad 2fbb f691 2f3c f8ea 8ebb
000001b0: c4e0 23bc 0b5a 653c 7fe3 793b f154 bbb8
000001c0: 7aca 953b 43f3 5c3c 5663 1837 1d30 4f3b
000001d0: 8459 a5bb 6e9a a03c 09f5 5dbb c211 e4ba
000001e0: d051 c0ba d2cf 79bc 68f3 cc3b 5f5c 06bc
000001f0: 341b 113c 6b3c f4bb 5026 f8bb f13f 85bc
00000200: 2174 acbc e170 e0bb de06 e93b 0f0d 6d3b
00000210: a274 473b 3420 c73b 6faf 2fba b4f7 643b
00000220: 70eb 3fbc daf7 f43b e63e 823c a4a2 2a3b
00000230: bb73 36bc dd5d 53bb e7e9 2d3b 6e00 93bb
00000240: 3a3f 503b b97e 4c3b 4aa8 4aba 78ff 3abc
00000250: 5f7d 4cbb 7fa2 c03b 3619 93bb a991 133c
00000260: 26f4 3ebb fa8a 793b 21c3 223b f46a 563c
00000270: bf79 6e3b 7b52 b439 7f09 2c3c 5b2f 863b
00000280: 61da 743a 3293 0d3b cc0a 05bc 050c 3e3a
00000290: 18ef 49bc c666 89bc 8635 0bbc 8d69 113c
000002a0: faa8 72bc 98a0 b1bb ad0a 763c b15e 9abc
000002b0: 5bc2 2839 1c46 c43b cbe5 2a3a 1c52 c83b
000002c0: cf78 093c 3dd3 c43b 36e0 b9bb da1c a93b
000002d0: 0535 34bc 7c7d 97bb b20c 0a3b ed06 97bc
000002e0: f552 803a 175b 023b 239e 00bc ea86 c23b
000002f0: 1971 a7ba 70bf dbbb 5cf9 e0bb e008 9a3b
00000300: ad6c 11bb f0f7 0c3c 8705 0d3b ded9 12bc
00000310: 6ad9 263c 783c 3cbc 1120 bd3b 8550 83bc
00000320: 67f2 903b 0e47 14bb 1a4a 92bc 09c2 283c
00000330: b533 15bc 1fb9 70bc ce21 093c 7da9 043a
00000340: 498d 8e3c 90a1 573b 724c 8bbc 2f96 c1bb
00000350: a3dc 98bb f6fd 13bc 76d5 9e3c c606 3aba
00000360: 17e8 903c 097f 34bc a1a3 c03b 5ae8 96bb
00000370: 0a4d 39bb 05bb fd3b 3ec7 e23b e306 02bc
00000380: f732 253c 46d2 93bb afa1 173c 8725 4cbc
00000390: ddba 853b 46f8 5b3b 35c2 64bc a4e3 07bb
000003a0: c28a b3bb 4187 68bb eb77 9abb c5bf ee3b
000003b0: ba59 a33b 13c7 c9bb c3d0 a0bb 26a0 babb
000003c0: 9971 db3a ec4b a23b ecad 9abb 4940 2b3b
000003d0: 1086 4d3b ccc8 49bb 1e9f 42bc 0b0a bb3b
000003e0: 7166 42bb dc4e 14bc 9c1f b9bb 26aa b83c
000003f0: 2f05 5b3b e985 0e3b ece8 c1bb 9de5 ed3b
-0.00923768 0.005994437 0.0047028563 -0.010644282 0.013069791 0.0044795154 0.005505118 -0.002398593
-0.005490413 0.0024071827 -0.008678037 0.005206572 -0.0090495255 -0.00068671023 -0.0047955136 0.005177341
-0.007561099 -0.0010281965 0.010187384 -0.011250868 -0.0049633486 -0.006832438 0.0106082 0.003042131
-0.01613633 -0.002020155 -0.001832522 0.0030668413 0.008109634 -0.01608357 0.0020571894 -0.009285182
0.0008818569 -0.0020053175 -0.0036345888 0.004802947 0.0065663145 -0.007944852 -0.023290545 0.011048791
0.01624007 -0.005836784 -0.0015166051 0.011892867 -0.0031878445 -0.0073923455 -0.0026133382 0.0063547203
-0.0028895563 -0.015336769 0.0011095186 -0.00640935 0.009985972 0.0014631995 -0.009120601 -0.009728778
-0.003667612 0.0027748868 0.00047696233 0.008208005 0.008213606 0.0008985817 0.006922392 0.020360863
-0.0013182679 -0.0059183263 -0.009345985 0.0126892235 -0.0030068145 0.003041976 -0.013275194 -0.008455965
-0.005531432 -0.006472721 0.005514105 -0.007712526 -0.001770328 -0.0118938 0.0069420855 0.0040955595
-0.009102107 0.0073970575 -0.015958156 -0.004930835 0.01268793 -0.0124670435 0.0143446205 0.01282709
0.01856943 0.003272449 0.011624534 0.0069583906 -0.01850691 0.0032300584 0.01688333 -0.012327053
0.013542407 -0.005414318 -0.01054774 -0.0102741765 -0.002017887 0.0004779552 -0.007832945 0.015509595
0.017268434 -0.0026806148 0.010715952 -0.0043615066 -0.010002319 0.013998519 0.0038129983 -8.9326764e-05
0.004571256 0.0134857325 9.0830345e-06 0.003161437 -0.0050460715 0.019604888 -0.0033867976 -0.0017400312
-0.001467282 -0.015247302 0.006254602 -0.008200734 0.008856583 -0.0074534914 -0.0075729266 -0.016265841
-0.021051468 -0.0068493937 0.0071114143 0.0036171114 0.0030434509 0.006076837 -0.0006701862 0.0034937682
-0.0117138475 0.0074758353 0.015899133 0.0026036883 -0.011135991 -0.0032251992 0.0026537122 -0.004486135
0.0031775967 0.0031203462 -0.00077307655 -0.011413448 -0.0031202657 0.005878746 -0.0044890894 0.009006896
-0.0029137223 0.0038077221 0.0024835544 0.013087023 0.0036388484 0.00034393728 0.010500311 0.0040950007
0.00093404023 0.0021602628 -0.00812025 0.0007249716 -0.012325071 -0.016772639 -0.008496648 0.008875263
-0.014810795 -0.0054207556 0.015017194 -0.01884398 0.00016094132 0.005989803 0.0006519227 0.006113304
0.008390619 0.006006627 -0.00567248 0.00516091 -0.010998969 -0.004623113 0.0021064696 -0.01843592
0.0009790348 0.001989072 -0.007850203 0.005936493 -0.0012774795 -0.0067061707 -0.0068656635 0.004700765
-0.002219002 0.008604035 0.0021518187 -0.008963076 0.0101836715 -0.011489026 0.005771645 -0.016029606
0.004423428 -0.002262536 -0.0178576 0.010300168 -0.009106566 -0.014692574 0.008369876 0.0005060656
0.017401354 0.0032902695 -0.017004225 -0.005907796 -0.004664974 -0.009032717 0.019388895 -0.0007096346
0.017688794 -0.011016616 0.005878881 -0.004605335 -0.0028274679 0.0077432417 0.006920724 -0.007936212
0.010082952 -0.0045111505 0.009254857 -0.012460119 0.0040811137 0.003356473 -0.013962318 -0.002073505
-0.0054791877 -0.0035481008 -0.0047140024 0.0072860443 0.0049850615 -0.0061577647 -0.004907699 -0.0056953607
0.0016742229 0.0049528982 -0.00472044 0.0026130846 0.0031360425 -0.003078985 -0.011878757 0.0057079843
-0.002966311 -0.009052005 -0.00564952 0.02254207 0.0033419838 0.0021747297 -0.005917659 0.007260038

weight f4 [73, 18]
00000000: 16b9 92bb 5e67 81bc 963e fbba e9b8 a33b
00000010: 1a02 91bb 1391 8b3c 879b 8b3b b8cf 063c
00000020: b462 75bb 5833 09bc eeb6 bfba bdcc 80bc
00000030: 8f70 443c 55ad 213b e6aa 0dbc db98 17bb
00000040: 0051 403b 7edb 293c 87d1 08bc 6a9b 9f3c
00000050: f4be 2b3b c1b9 e6bb 4fb8 83bc 8ad9 2c3c
00000060: 9903 fa3a 4fbf 86bc 76a6 bd3b 8058 1c3c
00000070: c217 ea3b 7b94 8a39 f9c9 95bc 27f5 dcba
00000080: 3290 eabb 5c35 663c 6ce1 c63a 9bcd 1dbc
00000090: 7dd9 f8bb 5533 6c3c e85b 56bc dae6 b63b
000000a0: 14b9 56bc b31b baba b497 3e3c 0894 173c
000000b0: 94c5 1b3c b765 a23b 746e 163b 92d1 95bb
000000c0: d685 2f3c 88f7 e3bb c336 cabb f3ed 523b
000000d0: 45fd af3c b42f d73b cea6 ab3a 0732 96bc
000000e0: f64c 89bc dbb4 9dbb 380c 3fbc a4ea 783a
000000f0: 07fd 0b3c cc1c 4abc f745 fbba c6c0 8f3c
00000100: 2a15 f33b a75a 82bb 99ec ad3b 32ad 573c
00000110: ab78 49bc f1af 52bc e522 4abb f669 303b
00000120: 5ff7 7fbb 83c6 d53b 9bff 56ba 71c6 ab3c
00000130: e78f be3b 1524 583c 0e04 2d3c 5609 223c
00000140: 1fc2 953c 3e09 6b3b 044d 053c 9896 2a3c
00000150: ac95 2d3c 64ee 37bc 7890 11bb 1014 9f3a
00000160: cbdd 21bc 469d 1d3b bb39 1ebc 8769 03bb
00000170: 530e 8b3a c772 063c 7abe ab3b 9a31 b5ba
00000180: 1ebf ab3b 99f9 f93b d1a6 60bb a630 99ba
00000190: c5cf cc3a 9728 033c f950 12bb 5bb7 bdbb
000001a0: 12b4 9c3c 62c8 2bbc d57c fcbb a145 953b
000001b0: 584b 4e3b 3737 acba 343e 2dbc 8d09 b03b
000001c0: dd48 c4b9 4e36 5cbc ad51 05bc f8c5 483c
000001d0: d7bb 5ebb de1b c23b fbfc 393c 5fc2 f9bb
000001e0: f083 5e3b ebd0 5b3c 4458 1b3c 0ab5 ea3b
000001f0: 39f0 ddba f7d0 f03b a65d da3a 6258 f1bb
00000200: eb12 9a3b 8be0 22bc 1563 9a3a 7884 803c
00000210: ecb7 aabc 2ebc 3a3c 716a fd3b 2978 853b
00000220: 310c bfbb d67b bb3b e0c2 503c 64bd 1dbb
00000230: c1a1 05bc ac00 bdbb 9541 fdbb c989 e8bb
00000240: c64d 41bb dcc0 85bb 59ea bfba 34e8 083c
00000250: 2c71 40bc 25ba 91ba 02c5 e53b 2677 93bc
00000260: 9e85 98bc 2f0e 8cbb f4de 51bb 5270 103c
00000270: 40e1 44bb 8b24 b2bb c2b1 cdbb da57 be3a
00000280: 031c c53a c58c 8d3a 7316 8a3b 4210 bf3b
00000290: 3d90 bb3b d518 babc 2e9d 94bc 3b8c a3bc
000002a0: ac5d 8fbb d909 593b c9c5 8dba 2fea 413b
000002b0: 1433 48bc ce20 f9bb 3f40 64bb 46dc b33a
000002c0: bf71 e33b e6d2 073c f067 153c 47ec 523b
000002d0: 5183 393b 432f 81bb d9b2 8bbc ebd8 0b3b
000002e0: 2ba8 c03c 794b 9abc 40ca 7bbc a223 00bc
000002f0: 7bb1 533c db86 0f3a cf8d 99bc 997e ed3a
00000300: 0452 21bb e592 2c3a da7f 02bc fe79 8ebc
00000310: a0d6 43ba f54a 8c3c 0892 b63b ddd3 05bc
00000320: ee79 583b 254d 90ba 375a 073c 7bd4 b6bb
00000330: f27e 293a b7b2 7fbb 3cc3 843c cc5b ad3b
00000340: e71f 193b a0bb aabb ed94 80bb 2f91 4dbc
00000350: 1268 493c 2978 31bc 6e43 4c3c 25f1 6e3c
00000360: 82c0 d539 f1f3 9b3b 47b5 31bc a93a 753c
00000370: 2874 663c 2fa5 6cbc 08dc 253c c930 87bc
00000380: aec0 a53a b2a5 8ebc 93c9 34bc 990d 95bc
00000390: 7212 013c 2f30 99bc 1d15 893c 1591 6c3a
000003a0: d70e 9c3b f8bc 9c3c f848 183c 6289 a3bb
000003b0: 2bc9 c73b 0bcd 2dbc 04be 62bc 8ec3 ef3b
000003c0: 7ed7 613c c15d f9bb e76b 7e3c 82ec 82bc
000003d0: f29d 433c b624 a73b 703e 76bb 8f55 bebb
000003e0: 265d dabb 6e91 5bbc 7e92 1ebc 03be 68bc
000003f0: da40 57bc bff7 4d3b 6512 673c c890 e9bb
-0.0044776304 -0.01579636 -0.0019168432 0.0049964082 -0.0044252994 0.01703695 0.0042604837 0.008228235
-0.0037442865 -0.008374058 -0.0014626661 -0.015722627 0.011989727 0.0024669964 -0.008646702 -0.002313188
0.0029345155 0.010367272 -0.008350736 0.019483287 0.0026206346 -0.0070411866 -0.016079096 0.010549912
0.0019074559 -0.016448645 0.005787666 0.009542584 0.0071439454 0.00026432038 -0.018284785 -0.0016857729
-0.0071583027 0.014050808 0.0015173382 -0.00963154 -0.007594286 0.014416535 -0.013083436 0.005581719
-0.0131056495 -0.0014198929 0.0116328485 0.009251602 0.0095075555 0.004955973 0.0022954019 -0.004572102
0.010713061 -0.0069569983 -0.006171079 0.0032185286 0.021483073 0.006566966 0.0013095976 -0.018334402
-0.01676033 -0.0048128194 -0.011660628 0.00094954134 0.008544213 -0.012335967 -0.0019170631 0.017547976
0.0074182944 -0.0039780918 0.0053077457 0.013163852 -0.012296836 -0.0128593305 -0.0030843553 0.0026918626
-0.0039057357 0.0065239086 -0.00082015403 0.020968648 0.0058154943 0.013192196 0.010560049 0.009889921
0.01828104 0.0035863663 0.008136038 0.010411881 0.010594767 -0.01122627 -0.0022211354 0.0012136716
-0.00987954 0.002405004 -0.009657319 -0.0020051913 0.0010609127 0.008206076 0.0052412124 -0.0013823987
0.005241289 0.0076286313 -0.0034279118 -0.0011687472 0.0015625885 0.008005283 -0.0022326095 -0.00578968
0.019128833 -0.010484787 -0.007705311 0.0045554196 0.0031478014 -0.0013139014 -0.010573912 0.0053722323
-0.0003743832 -0.013440682 -0.008137149 0.012254231 -0.0033986473 0.005923732 0.011351819 -0.007622048
0.0033953153 0.013416509 0.009481493 0.007162695 -0.0016932554 0.0073491293 0.001665999 -0.0073652724
0.004701962 -0.0099412305 0.0011778796 0.015688166 -0.020839654 0.011397405 0.007733636 0.004073162
-0.0058303108 0.0057215495 0.012741774 -0.0024069184 -0.008156241 -0.0057679024 -0.0077287653 -0.0070965034
-0.002949582 -0.0040818285 -0.0014641985 0.008356143 -0.011745732 -0.0011118097 0.0070120106 -0.01800115
-0.018618401 -0.0042741518 -0.003202376 0.008815842 -0.0030041486 -0.005436485 -0.006277294 0.0014522031
0.0015038255 0.0010799399 0.004214102 0.0058307955 0.0057239817 -0.022716919 -0.018141355 -0.019964328
-0.00437518 0.0033117442 -0.0010816391 0.0029589047 -0.012219209 -0.0076027876 -0.0034828333 0.0013722263
0.00694105 0.008290028 0.009119019 0.003218429 0.002830703 -0.0039424016 -0.017053055 0.002133901
0.023517689 -0.018834816 -0.015368044 -0.0078209955 0.012920733 0.0005475112 -0.018744377 0.0018119394
-0.0024615536 0.0006583168 -0.0079650525 -0.017392155 -0.0007470641 0.017125586 0.0055716075 -0.008168188
0.003303166 -0.0011009319 0.008261255 -0.005579529 0.00064657547 -0.0039016434 0.016206376 0.005290484
0.0023364963 -0.005210355 -0.0039240033 -0.0125468215 0.012292879 -0.010831871 0.012467248 0.0145838605
0.00040769955 0.0047593047 -0.010846443 0.014967599 0.01406578 -0.01444368 0.01012326 -0.016502755
0.0012645924 -0.017412994 -0.011034387 -0.01819496 0.007877933 -0.018699734 0.0167337 0.00090243045
0.0047625112 0.019133076 0.009294741 -0.0049907425 0.006096979 -0.010607968 -0.013839249 0.007317013
0.0137842875 -0.0076100533 0.015528656 -0.015981916 0.011939513 0.005100812 -0.0037573837 -0.005808539
-0.006663936 -0.013401372 -0.009678481 -0.014205459 -0.01313802 0.0031428186 0.014103507 -0.007127855

weight f4 [64, 16]
00000000: 1db4 0bbc a5f8 84bc e69f 283c 60b5 3c3c
00000010: 73de 6dbb 3f8b b0b9 26c0 bc3b 08e4 27bb
00000020: dc81 c03a 8101 10bc d2f5 753b 39df a4bb
00000030: 3b5f 9b3b eba5 93bb 1534 323c 8b47 353b
00000040: 4415 1a3c d8e9 61bc 1d11 fd3b a912 633c
00000050: f286 ba3c 4855 883c baba 363b e380 843c
00000060: a6c6 963b e6dc ac3c c6d0 d4bb 5d5a 283c
00000070: b182 943c 0792 80bc c70d 9abb e050 753a
00000080: f3ba 0a3c b2ea 283b e0ac a6bc bae8 d0bb
00000090: 18de 1c3c 1253 f53b 568b 733a b9ab 59bb
000000a0: 7877 59bc 102f 88bc 6656 9c3b ba7b 493b
000000b0: 163c 6b3c 7293 56bc c5c2 1ebc f44c bc3b
000000c0: 7478 14bb 9688 3dbb febd ad3b 5617 bf3b
000000d0: ee56 b53b 5a6b 01bc 5896 5fbc 0bbd 6ebb
000000e0: 7873 c1b9 38e2 513b 2330 a4bb 9f77 bf3b
000000f0: bb49 4d3c bbe8 90ba cd52 543c 7383 16ba
00000100: 8a1c 77bb afa0 af3b 9c5f 2aba 3b72 ec3b
00000110: a520 793b d163 3c3c e1e5 8bbc 5c88 6c3c
00000120: 3bad 13bc 9a23 bdbb e283 403b 5ea0 88bc
00000130: c94d 18bc ed2d e8bb b0dc 14bb d886 d3b9
00000140: c776 03bb e052 8f3b 6204 283b 72f0 933c
00000150: dcc9 29bc 5305 94bb b845 3b3b 2f3f 2d3b
00000160: f7ac 64bb cc25 963c a01e 203b 4883 273a
00000170: 8a92 713c a7d8 34bc c7a1 62bc 36ae e53b
00000180: abcc 9f3c eadf c3bb 3740 b7b9 7fef 62bb
00000190: 6028 813c 3b3b 1e3b bb02 0ebc bae2 3839
000001a0: 90cb 80ba 7b35 92bc ecf1 95bb 3bfe 003b
000001b0: 2c95 7b36 0809 86bc b58a fa3b eb92 9fba
000001c0: 02bb 013b 980d b23b 6817 36bb 265b b33b
000001d0: 26f8 813c c945 b4ba 7b6e bdbb b683 01bc
000001e0: bdd0 b73b c997 e4bb 8824 b0bb e128 0cbc
000001f0: 57c2 67bc 9428 3a3a 4172 1a3c ddc9 58bb
00000200: 9a72 26bb 6e60 46bb 8936 853a 2979 193c
00000210: d15d e8bb dedb bf3b 2521 923c 8024 153c
00000220: 0793 523b b395 b93a 0cd9 263c 6285 a13c
00000230: ebc9 213b 6dcb a239 0b11 803b 4c64 4bbc
00000240: 4d53 88bc d8da 973c 4571 b23b 0045 643b
00000250: d26d 8339 17bc 4a3b 7073 1fbc efa2 fe3b
00000260: 2354 743a bf16 25bc 9c5c 22ba 64dd 5c3c
00000270: da7b 0abc c2ab 223b 8581 27bc df95 61bc
00000280: 35d1 98bc a6f7 97ba 9f44 a7ba 156c 793c
00000290: ab7a cd3b 3020 02bc f682 2fbb f7b6 1c3c
000002a0: eadb 893b d1c2 723c f59e 913b ff49 ac3b
000002b0: b53d 1c3c cfbc c5ba eebb 8fbc 6d4c 163c
000002c0: 5002 aa3b 0293 a13c 8ec4 913b 5989 b7ba
000002d0: 94f5 d03b 8db2 2d3b c859 26bc 7dbc 4d3c
000002e0: 56b4 3e3b 0763 10bc a958 c1ba ec1a 5abc
000002f0: 20c3 283c a48b 76bc f067 2aba 780f 90bc
00000300: ae5a 70bc ae95 f3bb 2e94 553b 43a1 6cba
00000310: 33fa a5bc 65b4 dfbb 3838 1abc 80a0 433c
00000320: 3784 163c 7d9d 87bc fcae 2dbc c5d9 b5bb
00000330: 3c6a b0bb ade4 463b 1179 51b9 c15d 94bb
00000340: 2132 803a 04a8 3a3b 1ef5 c7bb 69d6 d4b9
00000350: 2567 febb de61 b13c e5b1 fb3b e6b4 90bc
00000360: 3d90 ff3b 8109 bbb9 a0e0 60bc a0cd 9b3b
00000370: 8607 d9ba 3b38 38ba f1a1 c63a d458 cbbb
00000380: 95d7 213b b027 07bb a80d 6b3b d804 6a3b
00000390: 116b 80bc 54c5 b6bc 6100 a0bc 2411 9bbb
000003a0: e286 9b3c 6821 79bc 6fea 493c 0246 e9b9
000003b0: 58d3 b1bc 7e02 a13a 4a1c 923b 8a34 213c
000003c0: 739c b13b c59e c439 a07e 973a 3861 a0bc
000003d0: 27fb 603c a229 a3bb d5d3 023c c8cc 4dbc
000003e0: 46e3 b3bb c4c1 e33b c712 02bc 9194 90b9
000003f0: 950e fabb b971 33bc 68d9 4cbb 2197 d93a
-0.008526829 -0.016231844 0.010292029 0.011517853 -0.003629592 -0.00033673082 0.0057602106 -0.0025618095
0.0014687139 -0.008789421 0.0037530554 -0.005031493 0.004741577 -0.004505863 0.010876675 0.002766105
0.009404484 -0.013788663 0.0077229873 0.013859429 0.022769425 0.016642228 0.0027882294 0.01617474
0.0046013175 0.021101426 -0.0064946143 0.010275451 0.018128725 -0.015694631 -0.0047013494 0.00093580596
0.008467424 0.0025774655 -0.020346105 -0.0063753994 0.009574436 0.0074867094 0.0009290477 -0.0033213927
-0.0132731125 -0.016624004 0.0047710417 0.0030743913 0.014357587 -0.013096677 -0.009689991 0.005746478
-0.0022654803 -0.0028920523 0.00530219 0.0058316393 0.0055340445 -0.00789913 -0.013646685 -0.0036428596
-0.0003689786 0.0032025706 -0.005010621 0.0058431174 0.012529786 -0.0011055687 0.012959194 -0.00057416334
-0.003770622 0.005359731 -0.0006499232 0.007215766 0.0038013842 0.011498407 -0.017077388 0.0144368075
-0.009013469 -0.0057720663 0.0029375483 -0.016678032 -0.009295889 -0.007085553 -0.0022714548 -0.00040345523
-0.002005981 0.004373893 0.0025637378 0.01805899 -0.010363068 -0.0045172363 0.002857549 0.0026435365
-0.0034893134 0.01832857 0.0024432316 0.0006390107 0.01474441 -0.011037982 -0.013832516 0.007009293
0.019506773 -0.0059776204 -0.00034952324 -0.0034627614 0.015766323 0.002414419 -0.008667643 0.0001763207
-0.0009826291 -0.017847767 -0.0045759585 0.0019682783 3.7488744e-06 -0.016361728 0.0076459297 -0.0012174522
0.0019795303 0.0054337494 -0.0027784947 0.005473512 0.015865397 -0.0013753708 -0.0057809926 -0.0079049375
0.0056096003 -0.006976102 -0.0053754486 -0.008554668 -0.014145455 0.00071013835 0.009426654 -0.0033079304
-0.0025397898 -0.003026988 0.0010163347 0.009367266 -0.007091262 0.0058550676 0.01783807 0.009102941
0.0032131092 0.0014158994 0.010183584 0.019716922 0.0024687003 0.00031050612 0.0039082817 -0.012414049
-0.016641283 0.01853697 0.0054456317 0.0034831166 0.0002506809 0.0030934864 -0.009732112 0.007770888
0.00093203987 -0.010076224 -0.00061936094 0.013480518 -0.00845238 0.0024821614 -0.010223751 -0.013768642
-0.018654445 -0.0011594191 -0.001276154 0.015223523 0.0062707267 -0.007942244 -0.002678094 0.009565107
0.004207124 0.014816956 0.004443998 0.0052578445 0.0095361965 -0.0015086177 -0.017545667 0.009173495
0.005188264 0.01972342 0.00444848 -0.0014002725 0.0063769314 0.002650413 -0.010153241 0.012557146
0.0029099188 -0.008812672 -0.0014751154 -0.013312083 0.010300428 -0.015047941 -0.0006500473 -0.017585501
-0.014670057 -0.0074336147 0.0032589543 -0.00090267154 -0.020260906 -0.0068269246 -0.009412818 0.011940122
0.009186796 -0.016554588 -0.010600802 -0.005549642 -0.005383758 0.0030348704 -0.00019976894 -0.004527778
0.0009780565 0.0028481493 -0.0061022183 -0.0004059554 -0.0077637606 0.021653112 0.007681119 -0.017664384
0.007799177 -0.000356745 -0.01372543 0.004754737 -0.0016558028 -0.0007027422 0.0015154463 -0.0062056575
0.0024695147 -0.002062302 0.0035866294 0.0035708454 -0.015676053 -0.02231089 -0.01953143 -0.004732268
0.018985216 -0.015205719 0.01232396 -0.00044493383 -0.021707222 0.0012284068 0.0044589387 0.009839186
0.0054202615 0.00037502326 0.0011558123 -0.019577608 0.013731754 -0.0049793283 0.007985075 -0.012561031
-0.0054897396 0.006950589 -0.007939047 -0.0002757651 -0.007631133 -0.010952407 -0.0031257514 0.0016600826

weight f4 [3, 3]
00000000: 7aaa 14bc 443d a6bb 7400 b5bb 8db9 b0bb
00000010: dd46 f0bb 0dc1 4ebc d3f6 c1bb 5c71 b73a
00000020: d0cd 88bc
-0.009073848 -0.0050732214 -0.0055237357 -0.005393213 -0.0073326663 -0.012619269 -0.0059193163 0.0013995576
-0.016699702

weight f4 [3, 3]
00000000: 47dd a1bb 86ed cebb 3938 63bb 3c10 143c
00000010: 21db 9bbb 50b1 133c 99bd 40bb 71c0 80bc
00000020: 4a8d e3b9
-0.0049397084 -0.006314936 -0.0034670962 0.009037074 -0.004756347 0.009014443 -0.0029409884 -0.015716763
-0.00043402083

weight f4 [3, 3]
00000000: b28c 06bc 4322 74bb ff7b 8f3c 5392 0fbb
00000010: 4530 0e3c 8787 8dbc 0248 943b d20e c03a
00000020: 23b0 293b
-0.008212255 -0.0037251867 0.01751518 -0.0021907284 0.008678501 -0.017276539 0.0045251856 0.0014652854
0.002589234

weight f4 [3, 3]
00000000: ce71 b2bb f2fd a23b 922f 673c 0e8d 8dbb
00000010: c023 7dbc 8801 e43b 6f34 7e3c d533 c839
00000020: f6e3 a9bb
-0.0054456955 0.0049741203 0.014110463 -0.0043197935 -0.015450418 0.0069581904 0.015515431 0.0003818559
-0.0051846458

weight f4 [3, 3]
00000000: 150e 38bc 0326 69bc 3ed3 1f3b 4261 473b
00000010: 9bab fdbb 7a9e 63bc a5b5 81bb 45eb 3a3c
00000020: e4c4 99ba
-0.011233826 -0.014230254 0.0024387385 0.003042296 -0.007741404 -0.013892764 -0.0039584213 0.011408632
-0.0011731652

weight f4 [3, 3]
00000000: 0168 d5ba 7e7c 7cba 5f69 943b d509 34bc
00000010: 9f6e 513c e82e 2f3b 7e71 91bb 96eb 00bc
00000020: 49eb 32bc
-0.0016281606 -0.0009631588 0.004529163 -0.010988672 0.012782722 0.002673084 -0.004438578 -0.007868668
-0.010920354

weight f4 [3, 3]
00000000: e02c 163c d625 03bb f335 57bc 03cb 40bc
00000010: 907f 69bb c8ff 0e3c a4d5 65bb 1e16 c2bb
00000020: cd08 983c
0.0091659725 -0.0020011566 -0.013135421 -0.011767152 -0.0035629012 0.008727975 -0.0035069967 -0.0059230467
0.018558884

weight f4 [15]
00000000: 8272 7f3f 70de 803f b324 803f b954 7e3f
00000010: 26e0 7d3f f08f 7f3f 3d9b 7f3f f01c 803f
00000020: 77f0 803f 291a 803f 0473 7f3f 6258 803f
00000030: 5d05 803f 942a 7e3f 9ce1 7f3f
0.997841 1.0067883 1.00112 0.99348027 0.9917015 0.99829006 0.9984625 1.0008831
1.0073384 1.0007983 0.99784875 1.0026972 1.0001637 0.9928372 0.9995363

bias f4 [15]
00000000: 1639 743b 7819 e339 2d4b 893b 9fe3 10bb
00000010: 20f3 a03b d57e 6bbb 4d32 55bb b2cd a13b
00000020: 68df c03a 0cd4 2cbb 9a8c c2b9 88b6 a2bb
00000030: 107c 7abb a407 a93b a3c4 b5bb
0.0037265471 0.0004331579 0.00418987 -0.002210833 0.0049117953 -0.0035933752 -0.0032531202 0.004937851
0.0014715018 -0.0026371507 -0.0003710732 -0.004965607 -0.003822092 0.0051583815 -0.0055471226

running_mean f4 [15]
00000000: 5392 073c 4b00 5aba c50f 093b 6273 393c
00000010: e6fa c53c 7ba1 96ba 8655 a8bb 83b3 70bb
00000020: 01b9 cbba 9d6e a5bb 808b b2bc 9e2a b8ba
00000030: f6ce ec3b 8f24 61bb 9dbc b6bb
0.0082746325 -0.00083160837 0.002091394 0.011319013 0.02416749 -0.0011492217 -0.0051371483 -0.003672809
-0.0015542806 -0.0050485865 -0.021795034 -0.0014050787 0.00722682 -0.0034354066 -0.0055766837

running_var f4 [15]
00000000: 24d3 803f a703 7c3f b67b 753f 5a4a 7d3f
00000010: 4b91 7c3f 2533 803f 0efa 7b3f 9e77 823f
00000020: 67ef 7e3f 4096 803f dfca 823f fef2 803f
00000030: 68c8 823f 8148 7d3f 0b63 813f
1.0064435 0.98443073 0.9589189 0.98941576 0.986592 1.0015608 0.9842843 1.0192754
0.9958405 1.0045853 1.0218161 1.0074155 1.0217409 0.9893876 1.010835

weight f4 [200, 109]
00000000: e804 f93c 7a31 993c 2f5b e23c 0b22 66bd
00000010: c929 563b 60e8 a1bd 42af c13d 6e1b 9e3d
00000020: 8740 353d 949c 973d 2e6e 14bd 47ac 5d3d
00000030: 1f61 a7bd 693a 08bd 4499 cb3d de8f 3fbd
00000040: a7a2 19bd 003e c8bd ca3b d53c fe89 4d3d
00000050: 093e 6bbd 2380 043c 9960 25bd 57e2 043c
00000060: d5d8 b2bd 82f4 a53d d21a 52bd 0c8e 82bd
00000070: 092d bfbd 3457 8b3d 0eb6 b0bd 92bf 8ebd
00000080: 0ca9 47bc 8812 bd3d d904 36bd d723 9abd
00000090: 88df 073c 985c fbbb 4527 6f3d ec6e b43c
000000a0: e8f4 52bd e767 aebd b8c6 cc3c adeb 64bc
000000b0: 0b57 8d3d 5814 bf3d 5e13 dcbc 1057 a43d
000000c0: 992b 02bd 8a75 b43d 5708 04bd 5830 2f3d
000000d0: 63b3 87bd 2864 d7bb 056e 33bd 167a 49bc
000000e0: 0a8e 9ebd 06cf 04bd 4423 2c3d 5a59 383d
000000f0: cf1c 4dbd 5bd1 17bd d8e1 4abd 5eef 7d3b
00000100: a7cb 21bc 2924 383d 6afc 893d 304c 74bc
00000110: 8522 a7bb cf12 aabd e6eb 2f3d e022 a0bd
00000120: 3e52 bcbc 448c a4bb 3d84 9abd 95d3 283c
00000130: f519 91bc 68fe b63c fe57 773d 0571 ea3c
00000140: 0485 453d a98b a4bd a3ff c3bd 4ac9 1abc
00000150: e3bf 833d 5c6b aebd 432e bd3c 73c2 74bd
00000160: c345 12bd 8782 db3c e237 b83d fe0a 1c3d
00000170: 1de0 5f3d d136 b9bd e2df 67bd 1b4e 913c
00000180: 4570 b03d 9e44 a9bd e4a7 c13b 5f5b 4dbd
00000190: 3f04 7bbd 27ce abba 219c 4a3d 79aa 79bd
000001a0: 1e05 3f3c adaf 2abd b596 0a3d 771a 243d
000001b0: 5f3c ebbc 5168 973d e997 c83c fa02 b73d
000001c0: 9841 883b 3a29 693c d623 bb3c a9a7 11bd
000001d0: 1305 89b9 6f21 6cbd 3a38 85bd f21e a73d
000001e0: e8fe 1b3d 0b28 523c ccbf 4bbd 2477 4b3d
000001f0: d179 63bd 6395 613d eb54 eebc 877c 1339
00000200: 0d8b 993d 4352 8fbc 1eb2 14bd cc82 433d
00000210: 9031 8dbd 723a b1bd 18dd cbbc adec 373d
00000220: c1ca adbb 0829 02bd a7d4 33ba 3f50 563d
00000230: e5cb 4d3d ae49 43bd aa28 9f3d ae4b 6d3d
00000240: 4ce9 8e3d e723 18bc 5d69 99bd c009 26bd
00000250: 9856 9c3d 07e5 6c3d b5f6 15bd 28f9 07bd
00000260: 60de 3f3a 2904 c03c 8e44 acbc fd65 bdbd
00000270: 3714 8a3c 8ba4 e5ba a845 803d c12d 293c
00000280: 6356 25bd 6155 f5bc c9b4 4a3c e5d4 7a3b
00000290: e8e3 9d3d 53c6 243c 2baa 9dbd e95a 3ebd
000002a0: 037f b8bd 9c3a 13bb a607 babd ef8b 9fbd
000002b0: 85d0 b3bd ddd1 afbd 326c 853b b6e4 b1bd
000002c0: 399b d23c c7ef 153d 5309 973d 3515 acbd
000002d0: 85dd 273c 534a 9c3d 5f71 c1bd 1cc5 b83d
000002e0: 8019 8abc 4098 acbc 7d8f 953c 7661 b0bc
000002f0: fdc4 073d 78f0 5d3c 658e bdbd d346 e9bb
00000300: e6ea b2bd 9cc1 1a3d 7f08 3cbd b230 803c
00000310: 035a 673d 460f 55bd 3a2a bc3d 59d3 0f3d
00000320: c957 76bd f55b 823c 5833 433d acdc 923d
00000330: 2d6e 123d 7718 5ebc a5c7 40bd 0322 15bd
00000340: 4366 abbd 79b2 643d 290e 263d de24 8e3d
00000350: 2e9c ccbd df86 533d 312c 9ebd b38a aa3b
00000360: 9549 0e3c f84f 9fbd 16ce e13c 7f7f 713d
00000370: 2e2d c9bd bc47 9a3d 0c28 c13b 7488 903d
00000380: dbb3 86bd 3a12 01bd b55f 8bbd eb02 9d3d
00000390: 1263 6e3d 54bd b4bc ea63 bd3d bc4c 1cbd
000003a0: 0ed2 0dbd 6200 1a3d 97ee 9f3d ff27 08bd
000003b0: e416 71bd bdfc adbd 55f3 bf3d 9015 c13d
000003c0: 612c 1ebd f77e 973d 6afa 243c f54f 80bd
000003d0: 8196 28bb c954 afbc 717a 913d fe91 96bc
000003e0: afdf 7fbd aa92 713d b76d 3abd cef4 f93c
000003f0: 6abb 853c 83f8 80bd 974c 81bd 9ab4 34bc
0.030397847 0.01870035 0.02763137 -0.05618481 0.0032678714 -0.0790565 0.09457256 0.077200755
0.04425099 0.07402912 -0.036237888 0.054119375 -0.08172821 -0.03325883 0.099413425 -0.04676806
-0.037508633 -0.097774506 0.026029486 0.050180428 -0.05743221 0.008087191 -0.040375326 0.008110604
-0.08732764 0.08103277 -0.05129511 -0.063747495 -0.09334762 0.06803742 -0.08628474 -0.06970133
-0.0121863 0.0923205 -0.044438217 -0.07526367 0.00829304 -0.00767095 0.05838706 0.022025548
-0.051503092 -0.085159115 0.0249971 -0.013972205 0.06901368 0.09330052 -0.026864704 0.08024418
-0.03177986 0.08811481 -0.032234516 0.042770714 -0.06626012 -0.006573219 -0.043806095 -0.012297174
-0.077419356 -0.032423995 0.04202582 0.045007087 -0.050076302 -0.03706489 -0.049531788 0.003874741
-0.009875215 0.04495636 0.06737597 -0.014910743 -0.0051005506 -0.08304369 0.04294958 -0.07819152
-0.022988435 -0.005021604 -0.07544754 0.010304351 -0.017712573 0.022338107 0.06038665 0.028618345
0.048222557 -0.080344506 -0.09570243 -0.009447405 0.06433084 -0.08516571 0.023093348 -0.059755754
-0.03571106 0.026795639 0.08995034 0.03809642 0.05465709 -0.090436585 -0.056609996 0.017737439
0.08615164 -0.08265041 0.0059099067 -0.050135966 -0.061283346 -0.0013107703 0.049465302 -0.06095359
0.011658935 -0.041671444 0.03383513 0.0400643 -0.02871531 0.07392944 0.024486499 0.089361146
0.00415821 0.014231021 0.022844236 -0.035560284 -0.00026134457 -0.057649072 -0.06504865 0.08160199
0.038084894 0.01282693 -0.04974346 0.04967417 -0.055536095 0.055074107 -0.029093226 0.00014065403
0.07497225 -0.01749528 -0.03630268 0.04773216 -0.06894219 -0.08653726 -0.0248857 0.044903446
-0.005303711 -0.03177741 -0.0006859996 0.052322622 0.050243277 -0.04767769 0.07771428 0.057933502
0.069780916 -0.009285904 -0.074907996 -0.040536642 0.07633704 0.057835605 -0.03661223 -0.0331966
0.0007319208 0.023439484 -0.021028783 -0.09247968 0.016855342 -0.0017520351 0.06263286 0.01032585
-0.040365588 -0.029947938 0.012372204 0.0038273868 0.07709485 0.01005705 -0.076984726 -0.046473417
-0.090086006 -0.0022465354 -0.0908349 -0.07790362 -0.08780006 -0.0858495 0.004071736 -0.08686201
0.025708782 0.036605623 0.07374825 -0.084024824 0.010245685 0.07631364 -0.09445452 0.09021971
-0.016857862 -0.021068692 0.018256897 -0.021530848 0.033146847 0.013546102 -0.09255675 -0.0071190386
-0.087362096 0.037782297 -0.04590654 0.01564822 0.056482326 -0.05201652 0.091877416 0.035113666
-0.060142312 0.01591299 0.047656387 0.07170996 0.035749603 -0.013555638 -0.047065396 -0.03640939
-0.08369114 0.055834267 0.040540848 0.069406256 -0.099907264 0.051642295 -0.077232726 0.0052045225
0.0086845355 -0.07778925 0.02756409 0.05895948 -0.098230705 0.075332135 0.0058946665 0.07057276
-0.065772735 -0.031511523 -0.06805364 0.07666572 0.05819995 -0.022062935 0.09247573 -0.038159117
-0.034624152 0.03759802 0.07809179 -0.03324127 -0.05885972 -0.084954716 0.09372584 0.09427941
-0.03861654 0.073972635 0.010069469 -0.062652506 -0.0025724473 -0.021402733 0.07103432 -0.018380161
-0.06246918 0.05897776 -0.04551479 0.03051224 0.016324718 -0.062974 -0.063134365 -0.011029387

bias f4 [200]
00000000: bc2e a9bd 6447 0c3d b775 bcbd ff24 52bc
00000010: 3f01 973c 73f4 82bc 3020 2bbd b46b c93d
00000020: 0b52 87bd 7fc9 803d 5ba2 b2bd 98ac 903d
00000030: 7cc2 dd3c f394 30bc 61c4 31bd dd24 bb3d
00000040: a82a ae3d fa5d c23d 331d d4ba e108 b33d
00000050: ee9a a3bd 879a 2dbd cddf d73c 8ef8 c0bd
00000060: 70f6 c6bc 8bc8 543d 7525 123c 3157 e43c
00000070: a496 98bd 848b 5b3d 3d9c bfbd 5e28 a1bd
00000080: 3f4a 8f3c c0f7 0ebd b10d 8abd 6d5d b53d
00000090: a580 a1bd 2331 dc3c 6e99 983c b83a 13bd
000000a0: 8d52 d6bc 7e04 a33d 468f b3bd fe6c 53bd
000000b0: d168 babc d06d e9bc 506c e33c 3a49 1d3c
000000c0: 98de ed3b 1a8d f93b ce9f 553d 354d 90bc
000000d0: dee4 a8bd 0167 adbd 5cdb 8dbb a7c6 003d
000000e0: 8972 ad3d 7645 9ebd 3dfa 44bd 38f1 a5bd
000000f0: fa81 613c fe10 d3bb 4330 90bd e08a 05bd
00000100: 1411 0e3d 137d 283d da59 edbc e944 adbd
00000110: aef3 a93d 451b 00bc e9e4 023d 622f 80bd
00000120: e947 2e3c e315 1c3d be4e 60bd 56f0 8e3d
00000130: fc29 7b3d dd70 603d 63aa f43c 92f1 c53d
00000140: 3d2a bc3d a7a8 353d 269a 6dbd 74f5 9fbb
00000150: 6e5e 8bbd 2bdb cebb f68d 813d b8e8 8b3d
00000160: 58dc 903d c46d c43c 3121 aa3d 7a54 dbbc
00000170: ad62 4f3d b8a1 8d3c aff4 47bd 334e 9c3d
00000180: e42d 6e3d f4f1 c03c 3447 b73d 3c9c 0d3c
00000190: f9af a2bd d24a 78bd 5388 543a 341a 1f3d
000001a0: 87be a1bd 82ef 5a3d 6983 383d 70af 563c
000001b0: 0d36 943c 6617 08bb 883f 5f3d bd36 40bd
000001c0: 5800 103d bd9e 8c3c bda6 49bd 2473 debc
000001d0: 933b 8cbd 054a e9bb a2aa 9fbc bbcd 523c
000001e0: 17ae 79bd 5837 963d c912 9e3c dee6 753d
000001f0: 45e7 93bd dc72 66bc 89ff 3f3d e5ba 5d3d
00000200: 1c48 51bd 459e 91bd 98db 853b 4d75 9f3d
00000210: 74b1 d2bc 0707 a1bd 003e cdbb e554 babd
00000220: 5391 973d 86fb a6bd c867 8c3d e7f7 73bd
00000230: 0c32 8dbd 72a8 42bd 1a11 303d fe74 73bd
00000240: 78a0 343d 13f9 9b3d 1da7 58bd a412 843d
00000250: 9d98 a73d eb1d bfbd e494 a03d 3bdd 93bd
00000260: 2334 17bd 6226 98bc ead7 f73c 5188 02bd
00000270: d15a 333d 57f8 60bd aef2 82bd c944 54bc
00000280: e0eb cdbc 8dec 863d 680c 85bd 3759 a7bc
00000290: 43c6 9fbd b45d 583d d424 afbd 6192 a8bd
000002a0: 9669 163d 9378 3dbd 0920 3bba e7f2 243d
000002b0: dec5 2b3d 15dc 633d 64e4 0abc 6f4e ac3c
000002c0: 8f14 e7bc f916 78bc b7f2 be3d baa7 97bd
000002d0: af33 b6bd 29ea 35bd c73a b73d 6460 5ebb
000002e0: c809 b5bd 71d2 913d 4a41 a63b 6866 aabd
000002f0: 59b1 6b3d 2a0d a93d f689 56bd bc1e 873b
00000300: c208 8cbd 925d 873d 2d69 fbbc 6a39 d83c
00000310: 1874 a93d 6318 8dbd a96e a33b b628 6b3d
-0.08260867 0.03424777 -0.0920214 -0.012826203 0.018433211 -0.015985703 -0.041778743 0.09834996
-0.06607445 0.06288432 -0.08722373 0.0706417 0.027070276 -0.0107777 -0.043400172 0.091378905
0.0850423 0.09490581 -0.0016183018 0.08741928 -0.07988535 -0.042383697 0.026351834 -0.09422408
-0.024287432 0.051949065 0.008920063 0.027873607 -0.074506074 0.05359985 -0.09355972 -0.078690276
0.017491458 -0.03490424 -0.06740893 0.0885571 -0.07885865 0.026878899 0.018627848 -0.03594467
-0.02616241 0.07959841 -0.087675616 -0.051617615 -0.022755058 -0.028494745 0.027761608 0.009599978
0.0072592013 0.0076156976 0.052154355 -0.01761494 -0.08246778 -0.08466912 -0.004329128 0.03143945
0.084691115 -0.07728092 -0.04809021 -0.081026495 0.013763899 -0.0064412346 -0.07040455 -0.032603145
0.034684256 0.041134905 -0.028973509 -0.08460409 0.08298431 -0.007819002 0.031956587 -0.062590376
0.010637262 0.03810681 -0.054762594 0.06979434 0.061319336 0.054795135 0.029866403 0.096652165
0.09187744 0.044350293 -0.058008336 -0.004881555 -0.068051204 -0.006312748 0.06325905 0.06831497
0.07073277 0.023978122 0.08307112 -0.02677368 0.050631214 0.017289028 -0.048817333 0.07632103
0.058149233 0.023552872 0.08949128 0.008643206 -0.0794372 -0.06061823 0.0008107472 0.03884335
-0.07897668 0.05345107 0.045047197 0.013103351 0.01809218 -0.00207659 0.054503947 -0.046927202
0.035156578 0.017165536 -0.04923128 -0.027154513 -0.068473004 -0.0071194195 -0.019490544 0.012866433
-0.06095704 0.07334775 0.019296067 0.060034625 -0.072218455 -0.014065471 0.046874557 0.054133315
-0.05109416 -0.07110266 0.0040850155 0.07786045 -0.025719382 -0.078626685 -0.0062634945 -0.090982236
0.07400765 -0.08153443 0.06855732 -0.05956259 -0.06894311 -0.047523923 0.04298506 -0.059437744
0.044098347 0.076158665 -0.052893747 0.06448868 0.081834055 -0.09331878 0.07840899 -0.07219931
-0.036914956 -0.01857299 0.030254323 -0.031868283 0.04378778 -0.054924335 -0.06393944 -0.012955853
-0.025136888 0.06588087 -0.06496507 -0.020428283 -0.07801487 0.052823737 -0.08551946 -0.082310446
0.03672179 -0.046257567 -0.00071382575 0.040270712 0.041936748 0.05562981 -0.008477304 0.021033494
-0.028208045 -0.015142196 0.09323638 -0.07405038 -0.088965766 -0.044412766 0.08946758 -0.0033931965
-0.08839756 0.07120217 0.005073701 -0.08320314 0.05754218 0.08254464 -0.052377664 0.004123537
-0.06837608 0.06609644 -0.0306898 0.026394565 0.08274096 -0.06889417 0.004987557 0.05741187
